pose_track/lighttrack/weights/GCN/epoch210_model.pt (torch_old, 96018 bytes, 13 tensors)

A f4 [3, 15, 15]
000000 00 00 00 3f 00 00 00 00 00 00 00 00 00 00 00 00
       0.5 0.0 0.0 0.0
000010 00 00 00 00 00 00 00 00 00 00 00 00 00 00 00 00
       0.0 0.0 0.0 0.0
000020 00 00 00 00 00 00 00 00 00 00 00 00 00 00 00 00
       0.0 0.0 0.0 0.0
000030 00 00 00 00 00 00 00 00 00 00 00 00 00 00 00 00
       0.0 0.0 0.0 0.0
000040 ab aa aa 3e 00 00 00 00 00 00 00 00 00 00 00 00
       0.33333334 0.0 0.0 0.0
000050 00 00 00 00 00 00 00 00 00 00 00 00 00 00 00 00
       0.0 0.0 0.0 0.0
000060 00 00 00 00 00 00 00 00 00 00 00 00 00 00 00 00
       0.0 0.0 0.0 0.0
000070 00 00 00 00 00 00 00 00 00 00 00 00 00 00 00 00
       0.0 0.0 0.0 0.0
000080 ab aa aa 3e 00 00 00 00 00 00 00 00 00 00 00 00
       0.33333334 0.0 0.0 0.0
000090 00 00 00 00 00 00 00 00 00 00 00 00 00 00 00 00
       0.0 0.0 0.0 0.0
0000a0 00 00 00 00 00 00 00 00 00 00 00 00 00 00 00 00
       0.0 0.0 0.0 0.0
0000b0 00 00 00 00 00 00 00 00 00 00 00 00 00 00 00 00
       0.0 0.0 0.0 0.0
0000c0 ab aa aa 3e 00 00 00 00 00 00 00 00 00 00 00 00
       0.33333334 0.0 0.0 0.0
0000d0 00 00 00 00 00 00 00 00 00 00 00 00 00 00 00 00
       0.0 0.0 0.0 0.0
0000e0 00 00 00 00 00 00 00 00 00 00 00 00 00 00 00 00
       0.0 0.0 0.0 0.0
0000f0 00 00 00 00 00 00 00 00 00 00 00 00 00 00 00 00
       0.0 0.0 0.0 0.0
000100 ab aa aa 3e 00 00 00 00 00 00 00 00 00 00 00 00
       0.33333334 0.0 0.0 0.0
000110 00 00 00 00 00 00 00 00 00 00 00 00 00 00 00 00
       0.0 0.0 0.0 0.0
000120 00 00 00 00 00 00 00 00 00 00 00 00 00 00 00 00
       0.0 0.0 0.0 0.0
000130 00 00 00 00 00 00 00 00 00 00 00 00 00 00 00 00
       0.0 0.0 0.0 0.0
000140 00 00 00 3f 00 00 00 00 00 00 00 00 00 00 00 00
       0.5 0.0 0.0 0.0
000150 00 00 00 00 00 00 00 00 00 00 00 00 00 00 00 00
       0.0 0.0 0.0 0.0
000160 00 00 00 00 00 00 00 00 00 00 00 00 00 00 00 00
       0.0 0.0 0.0 0.0
000170 00 00 00 00 00 00 00 00 00 00 00 00 00 00 00 00
       0.0 0.0 0.0 0.0
000180 00 00 00 3f 00 00 00 00 00 00 00 00 00 00 00 00
       0.5 0.0 0.0 0.0
000190 00 00 00 00 00 00 00 00 00 00 00 00 00 00 00 00
       0.0 0.0 0.0 0.0
0001a0 00 00 00 00 00 00 00 00 00 00 00 00 00 00 00 00
       0.0 0.0 0.0 0.0
0001b0 00 00 00 00 00 00 00 00 00 00 00 00 00 00 00 00
       0.0 0.0 0.0 0.0
0001c0 ab aa aa 3e 00 00 00 00 00 00 00 00 00 00 00 00
       0.33333334 0.0 0.0 0.0
0001d0 00 00 00 00 00 00 00 00 00 00 00 00 00 00 00 00
       0.0 0.0 0.0 0.0
0001e0 00 00 00 00 00 00 00 00 00 00 00 00 00 00 00 00
       0.0 0.0 0.0 0.0
0001f0 00 00 00 00 00 00 00 00 00 00 00 00 00 00 00 00
       0.0 0.0 0.0 0.0
000200 00 00 80 3e 00 00 00 00 00 00 00 00 00 00 00 00
       0.25 0.0 0.0 0.0
000210 00 00 00 00 00 00 00 00 00 00 00 00 00 00 00 00
       0.0 0.0 0.0 0.0
000220 00 00 00 00 00 00 00 00 00 00 00 00 00 00 00 00
       0.0 0.0 0.0 0.0
000230 00 00 00 00 00 00 00 00 00 00 00 00 00 00 00 00
       0.0 0.0 0.0 0.0
000240 00 00 80 3e 00 00 00 00 00 00 00 00 00 00 00 00
       0.25 0.0 0.0 0.0
000250 00 00 00 00 00 00 00 00 00 00 00 00 00 00 00 00
       0.0 0.0 0.0 0.0
000260 00 00 00 00 00 00 00 00 00 00 00 00 00 00 00 00
       0.0 0.0 0.0 0.0
000270 00 00 00 00 00 00 00 00 00 00 00 00 00 00 00 00
       0.0 0.0 0.0 0.0
000280 ab aa aa 3e 00 00 00 00 00 00 00 00 00 00 00 00
       0.33333334 0.0 0.0 0.0
000290 00 00 00 00 00 00 00 00 00 00 00 00 00 00 00 00
       0.0 0.0 0.0 0.0
0002a0 00 00 00 00 00 00 00 00 00 00 00 00 00 00 00 00
       0.0 0.0 0.0 0.0
0002b0 00 00 00 00 00 00 00 00 00 00 00 00 00 00 00 00
       0.0 0.0 0.0 0.0
0002c0 00 00 00 3f 00 00 00 00 00 00 00 00 00 00 00 00
       0.5 0.0 0.0 0.0
0002d0 00 00 00 00 00 00 00 00 00 00 00 00 00 00 00 00
       0.0 0.0 0.0 0.0
0002e0 00 00 00 00 00 00 00 00 00 00 00 00 00 00 00 00
       0.0 0.0 0.0 0.0
0002f0 00 00 00 00 00 00 00 00 00 00 00 00 00 00 00 00
       0.0 0.0 0.0 0.0
000300 00 00 80 3e 00 00 00 00 00 00 00 00 00 00 00 00
       0.25 0.0 0.0 0.0
000310 00 00 00 00 00 00 00 00 00 00 00 00 00 00 00 00
       0.0 0.0 0.0 0.0
000320 00 00 00 00 00 00 00 00 00 00 00 00 00 00 00 00
       0.0 0.0 0.0 0.0
000330 00 00 00 00 00 00 00 00 00 00 00 00 00 00 00 00
       0.0 0.0 0.0 0.0
000340 ab aa aa 3e 00 00 00 00 00 00 00 00 00 00 00 00
       0.33333334 0.0 0.0 0.0
000350 00 00 00 00 00 00 00 00 00 00 00 00 00 00 00 00
       0.0 0.0 0.0 0.0
000360 00 00 00 00 00 00 00 00 00 00 00 00 00 00 00 00
       0.0 0.0 0.0 0.0
000370 00 00 00 00 00 00 00 00 00 00 00 00 00 00 00 00
       0.0 0.0 0.0 0.0
000380 00 00 00 3f 00 00 00 00 ab aa aa 3e 00 00 00 00
       0.5 0.0 0.33333334 0.0
000390 00 00 00 00 00 00 00 00 00 00 00 00 00 00 00 00
       0.0 0.0 0.0 0.0
0003a0 00 00 00 00 00 00 00 00 00 00 00 00 00 00 00 00
       0.0 0.0 0.0 0.0
0003b0 00 00 00 00 00 00 00 00 00 00 00 00 00 00 00 00
       0.0 0.0 0.0 0.0
0003c0 00 00 00 3f 00 00 00 00 ab aa aa 3e 00 00 00 00
       0.5 0.0 0.33333334 0.0
0003d0 00 00 00 00 00 00 00 00 00 00 00 00 00 00 00 00
       0.0 0.0 0.0 0.0
0003e0 00 00 00 00 00 00 00 00 00 00 00 00 00 00 00 00
       0.0 0.0 0.0 0.0
0003f0 00 00 00 00 00 00 00 00 00 00 00 00 00 00 00 00
       0.0 0.0 0.0 0.0

data_bn.weight f4 [30]
000000 3f 9e 88 3f d8 a2 77 3f 65 f3 45 3f ff 5a 64 3f
       1.0673293 0.96732855 0.77324516 0.8920135
000010 ca 23 b3 3f e5 0b b3 3f ae 7d b8 3f e4 4e f3 3f
       1.3995297 1.3988005 1.4413354 1.900845
000020 4e 6c 92 3f 6b f7 c1 3f a9 67 69 3f 3c 80 85 3f
       1.1439302 1.5153631 0.911738 1.0429759
000030 11 8f 9d 3f f7 f8 79 3f 7d 24 8a 3f b4 37 8c 3f
       1.2309285 0.97645515 1.0792385 1.0954499
000040 e1 a9 82 3f e9 a9 7d 3f d8 30 9a 3f 81 c0 a3 3f
       1.0208093 0.9908739 1.2046156 1.2793123
000050 01 8d a6 3f 1a b6 ab 3f 1b 7b aa 3f 2f 81 61 3f
       1.3011781 1.3414948 1.3318819 0.88087744
000060 48 c3 96 3f 23 c0 9f 3f 24 a7 a0 3f ff 7d 86 3f
       1.1778345 1.248051 1.2551007 1.0507201
000070 0f b7 e8 3f f8 4b 6c 3f
       1.8180865 0.9230342

data_bn.bias f4 [30]
000000 78 63 d7 be 1a d6 23 be b7 ee cb 3b 9f 35 d6 3d
       -0.42068076 -0.15999642 0.0062235254 0.10459446
000010 60 e2 34 3e 70 d9 b6 3e 2a 34 5d 3f 11 c5 f5 3d
       0.1766448 0.35712767 0.8640772 0.12000478
000020 e9 46 7c 3d 52 a7 5f 3e 22 5e 90 bd 7f c9 e3 bd
       0.061591063 0.21841171 -0.070492044 -0.11122417
000030 1b 2b 8f be f6 9d 32 bd 67 0a 63 3b cd 7f d3 3d
       -0.27962574 -0.043607675 0.0034643651 0.103271104
000040 5c bb 88 3d 21 40 4f 3d ba 78 13 3d 57 b4 20 3e
       0.06676361 0.050598267 0.036003806 0.15693794
000050 87 b4 12 be 45 67 8f 3d ae 68 9a be 74 89 4d 3d
       -0.14326678 0.07002119 -0.3015799 0.050179914
000060 a7 9b cd 3c f8 19 77 bd aa 8f 1e bd 47 2d 13 3e
       0.025098635 -0.0603275 -0.038711227 0.1437274
000070 bb 41 8c be 19 44 29 3d
       -0.27393898 0.04132471

data_bn.running_mean f4 [30]
000000 98 8c 1d c3 ee 37 35 43 7f bf c2 c2 ff 3f 45 43
       -157.5492 181.21848 -97.374016 197.24998
000010 ee 81 44 42 e6 c9 64 43 71 aa ee 41 9b c1 4d 43
       49.126884 228.78867 29.833223 205.75627
000020 2b 88 9a c2 e6 a4 50 43 ff d4 e2 c2 b0 37 56 43
       -77.26595 208.64413 -113.41601 214.21753
000030 d4 6c 1f c3 51 65 b5 42 df 73 d7 c2 8e e7 d9 42
       -159.42511 90.69788 -107.72631 108.952255
000040 2c 92 25 42 2c 02 d6 42 72 e9 c6 42 8c 11 f6 42
       41.392746 107.00424 99.45595 123.03427
000050 a3 0a 5b c1 1f 88 05 43 36 a3 a4 c2 cb ef c2 42
       -13.690097 133.53172 -82.31877 97.468346
000060 9d 0f 6d 42 f3 eb b6 42 7b 0b a2 42 3e 9d 9e 42
       59.265247 91.46084 81.02242 79.30711
000070 b8 05 60 42 dc ef cf 41
       56.005585 25.992119

data_bn.running_var f4 [30]
000000 2c 50 5e 48 7b 60 fe 47 a0 5e 3c 48 a1 0c b5 47
       227648.69 130240.96 192890.5 92697.26
000010 5f 12 85 47 4f cf 6f 47 9e 0f da 47 69 26 5a 47
       68132.74 61391.31 111647.234 55846.41
000020 71 16 30 48 c4 7e b9 47 28 67 1f 48 0c 7c d5 47
       180313.77 94973.53 163228.62 109304.09
000030 ef c3 59 48 03 f9 84 47 a7 73 4a 48 13 b0 50 47
       222991.73 68082.02 207310.61 53424.074
000040 dc 01 c8 47 76 88 c7 46 38 1a 45 47 a9 d4 a2 46
       102403.72 25540.23 50458.22 20842.33
000050 40 65 13 48 09 dd 89 47 61 71 35 48 bc 8f 82 47
       150933.0 70586.07 185797.52 66847.47
000060 73 0b 88 47 2d 73 ce 46 b0 d1 36 47 16 2e 73 46
       69654.9 26425.588 46801.688 15563.521
000070 bf b8 8d 47 a8 3c 8b 46
       72561.49 17822.328

st_gcn_networks.0.gcn.conv.weight f4 [192, 2, 1, 1]
000000 d6 fd ef be 83 69 0e 3f 36 da bb 3d b3 d6 8b be
       -0.4687335 0.5562975 0.0917248 -0.2731224
000010 01 f3 62 3f cf a8 de be 6d bd 64 3d 6c fb 65 3d
       0.88652045 -0.43488166 0.055844713 0.056147978
000020 a5 92 70 bf 9f 1e b3 bd 42 7d aa be 0f 86 6f bf
       -0.9397376 -0.08746075 -0.3329869 -0.9356393
000030 6b b0 4e 3f 9d 5a c1 3e 2d e2 e6 3d c6 f8 76 bf
       0.8073794 0.37764445 0.11273608 -0.9647335
000040 ea e7 87 bf d6 0e 5c be ff 94 23 3d d4 08 76 3f
       -1.061765 -0.21490034 0.039937016 0.9610722
000050 31 a5 98 bf e0 84 dc 3d 07 e4 61 be 6e 60 0c 3f
       -1.1925412 0.107675314 -0.22059642 0.5483464
000060 d0 96 02 3b 57 da 99 3f a3 95 e8 3e 00 02 91 bf
       0.0019926317 1.2019757 0.45426664 -1.1328735
000070 6c 18 76 bc ec c0 06 be 43 10 57 3f c7 27 68 bf
       -0.015020471 -0.13159531 0.8400919 -0.90685695
000080 cc 3c 9f be 0d 55 af be fd ff 58 be e3 36 bb bd
       -0.31101072 -0.34244576 -0.21191402 -0.09141328
000090 b2 de 97 3d 77 a3 ab 3d 4e 12 fd be f0 e6 c4 3f
       0.07415523 0.08380788 -0.49428028 1.5382977
0000a0 53 7f cd be 20 af a9 3e 09 9f 5e bf 26 fc 97 bf
       -0.40136203 0.33141422 -0.8696142 -1.1873825
0000b0 1f 8c a7 3d 75 74 80 3d a7 aa 5c 3e 6e 0c 06 bf
       0.08181023 0.062722124 0.21549474 -0.52362716
0000c0 65 55 a8 bc 28 95 e8 3e be 39 27 bf 74 2c aa 3e
       -0.020548532 0.45426297 -0.6532248 0.3323704
0000d0 2a f1 04 3f 3f 02 d1 3d 83 08 31 be 25 8b fb 3d
       0.5193049 0.102055065 -0.17288403 0.12282399
0000e0 cc ea 62 bd e7 a9 49 be 5b 67 01 bf 7b 61 db 3e
       -0.0553997 -0.19693719 -0.5054833 0.4284781
0000f0 f5 eb 11 3d 42 68 38 3e d6 22 72 bd 96 b2 37 be
       0.035625417 0.18008521 -0.059115253 -0.17939219
000100 d1 1a 52 3f 78 9f 0a 3f b8 f7 e0 be ec 30 c9 3f
       0.8207217 0.5414958 -0.43938994 1.5718055
000110 10 2b 37 be ff 47 9f 3e 91 0f 16 3f 09 6a 23 bf
       -0.17887521 0.31109616 0.586175 -0.6383367
000120 06 5b ad 3f 82 6f e0 be 2a 2b f8 bc d4 d8 c0 3e
       1.3543403 -0.43835074 -0.03029402 0.37665427
000130 fe 30 aa bd 92 c0 a2 bc dd f8 89 3d 64 ba c6 bd
       -0.08310126 -0.019867215 0.0673692 -0.0970352
000140 94 ef e2 be cc 84 ba 3f 87 dc c5 bd 9c dc 12 3f
       -0.4432341 1.4571776 -0.09661203 0.57367873
000150 df 8a 48 be 6e a5 48 3f 69 13 38 bf 78 d5 be bf
       -0.19584225 0.78377426 -0.7190462 -1.4908895
000160 28 03 6b be f4 86 ab 3d 93 8b 7e bf ce c7 1e be
       -0.22950423 0.0837535 -0.99431723 -0.15505907
000170 ed e1 c7 3c b7 74 02 3f 7c bc 16 3d bf 3d f3 3d
       0.024399722 0.5095934 0.036800846 0.118770115
000180 1c 8d a5 bf 59 64 07 3f 06 cf 12 bf 35 e7 00 3f
       -1.2933688 0.52887493 -0.5734714 0.50352794
000190 ab e6 67 be 86 24 2b bf 18 20 a4 3e 22 28 fe be
       -0.22646587 -0.66852605 0.32055736 -0.49639994
0001a0 2e 5d 27 be db 15 30 3e f8 27 c2 be 5d 47 ba 3e
       -0.16344139 0.17195837 -0.3792112 0.3638257
0001b0 70 9b ae 3e e2 3d e4 be 7a fd e2 3e c8 10 4d bc
       0.34102964 -0.44578463 0.44334012 -0.012516208
0001c0 1a 9b 14 bf 5a 99 0b 3f 42 bf c9 be 76 7c 71 3f
       -0.58049166 0.5453087 -0.3940373 0.9433054
0001d0 a6 d4 2d bf a1 34 98 bf 5a 04 c2 3f eb de a8 be
       -0.679026 -1.1891061 1.5157578 -0.32982573
0001e0 86 db 5f 3d e0 3e 16 bd a2 40 ae bd 76 51 f4 3e
       0.054652713 -0.036681056 -0.085084215 0.477184
0001f0 07 8f 6e bf 5f 81 55 3f e7 f9 e4 3e b1 2c 15 3f
       -0.9318699 0.8340053 0.4472191 0.5827132
000200 36 e7 2f bf 12 6f 13 3f d0 ba 24 3f 22 43 4b be
       -0.68712175 0.57591355 0.64347553 -0.19849828
000210 ca 72 37 bf 34 ca 99 3e 41 50 30 3e e3 ca 00 be
       -0.7165953 0.3003708 0.17218114 -0.12577395
000220 e1 14 10 3c 4c f5 83 3c 76 f5 b0 3d 0a c7 d7 3d
       0.00879404 0.016108178 0.08640568 0.105360106
000230 47 7f a2 3c 5a fd 94 3c 5d 7a 30 be df 53 54 3e
       0.019836081 0.018187214 -0.17234178 0.2073512
000240 93 f9 fd 3c 0e e5 fc 3e 9f 91 e3 be d0 f7 b6 bf
       0.031002795 0.49393505 -0.44447038 -1.4294376
000250 6b cb 35 3e a8 55 0b bd c7 c0 39 bd 8b 50 68 3e
       0.17753379 -0.034017235 -0.045349862 0.22686975
000260 1c 47 28 3e e8 79 8e bf c7 74 7f be 74 f1 45 3e
       0.16433376 -1.1130953 -0.24946891 0.19330388
000270 f1 4c 06 bf 7c cd 50 3e b5 98 81 bb 2b be 0d 3e
       -0.52461153 0.20390886 -0.0039549717 0.13842075
000280 49 06 ce be 2c bf 0f 3f 55 c3 17 3f e5 8e 3b bf
       -0.4023917 0.5615108 0.5928243 -0.73264915
000290 55 28 a0 3d e8 0b 12 3f 22 de 0e bf 11 c9 a5 bf
       0.07820193 0.5704942 -0.558077 -1.2951986
0002a0 fe c7 88 3f e4 e7 d2 be 96 68 f8 bd 4c a0 bf 3e
       1.0686033 -0.41192544 -0.12129323 0.37426984
0002b0 35 fc 7b bf 03 2a 97 3d aa 6a 9a be a8 37 54 bf
       -0.9843171 0.0738106 -0.30159503 -0.82897425
0002c0 3c f8 d2 3d 6f a9 d9 be 57 83 4b bf 64 4d 78 3f
       0.10301253 -0.4251208 -0.79497284 0.9699309
0002d0 7a b9 bf be b6 48 c4 bc 00 a4 a5 3d 87 d5 12 be
       -0.37446195 -0.023960453 0.08087921 -0.14339267
0002e0 12 c0 2a bf f0 c7 d1 be 01 8a b5 3e d7 70 47 bf
       -0.66699326 -0.40972853 0.3545685 -0.77906555
0002f0 ac c8 3b be b7 4b 36 bf 68 79 48 bd 24 7e 46 3f
       -0.18338269 -0.7120928 -0.048943907 0.77536225
000300 98 5e 5e bf d0 38 77 bf a4 1b 29 3e d7 9e 52 bf
       -0.8686309 -0.96571064 0.1651445 -0.8227362
000310 ba 90 9c 3d 84 bb 09 bf 44 e6 21 bf 91 ae 10 3f
       0.07644792 -0.5380175 -0.6324198 0.5651637
000320 1a 00 e2 be 3a ea 5d 3e 63 db 67 bd df 9d 36 be
       -0.44140702 0.21671382 -0.056605708 -0.1783366
000330 56 f4 25 3e c7 21 21 3e c9 96 2d 3c ca 9f 73 be
       0.16206488 0.15735541 0.010595032 -0.23791423
000340 66 16 9c 3c 9c fa 5b 3d a5 10 6a 3d 3b fd 31 be
       0.01905365 0.053705797 0.05714478 -0.17381756
000350 fc c7 0d 3e b1 bc 48 3e ed 00 d7 be 03 a4 f5 3e
       0.13845819 0.1960323 -0.41992894 0.47976694
000360 06 d4 20 be 9c b0 d8 be 0c bb 93 be 20 2c 52 be
       -0.1570588 -0.42322242 -0.28853643 -0.20524645
000370 81 66 65 3e e2 42 13 3f fd a6 02 40 c2 35 e5 be
       0.22402383 0.5752393 2.0414422 -0.44767576
000380 4c ec 0e 3d b5 a1 a7 bd c1 a0 92 3e 30 11 06 3e
       0.03489332 -0.0818514 0.2863827 0.13092494
000390 99 27 80 bc db 34 cf 3e fe 23 7f bf a2 4d 5a 3f
       -0.015643882 0.40470013 -0.99664295 0.8527471
0003a0 2e b5 0d 3f f9 74 3a bf 6a 51 eb be 05 df 9c ba
       0.55354583 -0.72834736 -0.45960552 -0.001196832
0003b0 08 50 77 bf 52 2c 62 3f 10 47 2d bf fd 30 12 bd
       -0.96606493 0.8834888 -0.6768656 -0.03569125
0003c0 a5 c4 1d 3f 84 e3 ce be 2a 12 39 bd 47 1a 48 3d
       0.6162818 -0.40407956 -0.04518334 0.048853185
0003d0 95 f5 f5 3d 07 04 6a 3d f9 ad 24 bd 91 df 53 3d
       0.12009732 0.057132747 -0.040204976 0.05172688
0003e0 c9 c0 8a be 88 87 9b 3f 63 ed f2 3c 39 b3 26 bf
       -0.27100208 1.2150736 0.02965421 -0.6511722
0003f0 00 74 08 3f 21 fe 14 bf ba 24 e6 bd 6f bd 1a bd
       0.53302 -0.5820027 -0.11237474 -0.037778314

st_gcn_networks.0.gcn.conv.bias f4 [192]
000000 b4 90 0e 3f 96 d5 51 3e dd 35 cc be ae 93 3b be
       0.5568955 0.20491633 -0.39884844 -0.18318054
000010 1c a7 b4 3e cb 83 11 3f c9 62 dd bd 4c 88 38 3f
       0.35283744 0.56841725 -0.108098574 0.7208297
000020 98 3e 12 be f4 01 4e bf e3 cf 6b 3f 97 d8 2b 3f
       -0.1428169 -0.8047173 0.92114085 0.67127365
000030 3b ef 04 bf 5c 2f d2 be 0a c6 9c 3d ad b3 c7 be
       -0.51927537 -0.41051757 0.076549605 -0.3900427
000040 ea 4c 1a 3d d1 74 05 3d 30 a3 50 bf f8 e3 38 bf
       0.037671007 0.032582108 -0.81499004 -0.7222285
000050 2c 81 5d 3d aa 38 67 bf 20 6b 8d 3d 63 70 e9 bc
       0.054078266 -0.9032084 0.06905198 -0.028495973
000060 26 0b 34 3d 13 96 47 bf be 5b 8b 3e 31 43 92 bd
       0.043955944 -0.7796337 0.2721843 -0.07141722
000070 7b 6d 20 bf 8c 60 2f 3f 59 54 f6 be f2 67 97 be
       -0.62667054 0.68506694 -0.48111227 -0.2957149
000080 c2 c2 f3 be cf 91 94 bd c9 66 18 3e 30 bc 05 3f
       -0.47609526 -0.07254373 0.1488296 0.52240276
000090 f1 8b c3 bc 95 55 46 bf 32 78 e0 be 18 52 f6 be
       -0.02387044 -0.7747434 -0.43841702 -0.48109508
0000a0 d6 60 f4 be 90 09 3a bf 2b 2c d6 bd 48 59 45 be
       -0.4773013 -0.7267084 -0.10457643 -0.1927234
0000b0 91 9d 7b be f1 1f 67 bf c7 1e d3 3d a0 ad 04 bf
       -0.24571826 -0.90283114 0.10308605 -0.5182743
0000c0 74 43 18 3f 44 18 ce be 73 1f ed be 95 f7 b4 bd
       0.59477925 -0.40252888 -0.46313056 -0.08836285
0000d0 6f cb 48 3d 26 f8 dc bd d4 82 7e bc 15 59 83 be
       0.049022134 -0.10789518 -0.015534122 -0.25653902
0000e0 52 68 82 bf 9c e4 98 3e cf 28 a4 bf 05 ea 0a be
       -1.0188086 0.29861915 -1.2824954 -0.13565834
0000f0 33 7b 35 be 17 9b 89 3f ec 2a e3 3e 2a c4 04 3f
       -0.17722778 1.0750455 0.44368684 0.5186182
000100 52 94 92 3d 8b ed eb be 18 46 9c 3e 9c 49 1d 3e
       0.07157196 -0.46079668 0.30522227 0.15360111
000110 81 9d cd 3d 31 39 fa be 1a e9 8a 3e 72 44 7e 3b
       0.10039807 -0.4887176 0.27130967 0.003879812
000120 e3 f1 19 3e 3e cb 0e be 57 6a 03 bf a5 7c 01 c0
       0.15033679 -0.13944718 -0.51334137 -2.0232327
000130 d6 d9 08 3e 19 9e b5 bd d8 5d 4d 3e 67 cc 0b 3f
       0.13364348 -0.08868045 0.2005533 0.5460877
000140 9e be 01 bf 1d a0 57 be 78 7f 53 be cc 6c 8e bf
       -0.50681484 -0.21057172 -0.20654094 -1.1126952
000150 70 12 6b 3d ac 96 87 be 48 65 01 3f c1 49 fb bf
       0.05739063 -0.2648214 0.5054517 -1.9631883
000160 fd ae 24 3f 28 84 bf bd 7d 08 a7 be c6 e2 6f bc
       0.6432951 -0.09351379 -0.32623664 -0.014641469
000170 5f db c3 3e be 3a 1a bf d1 28 79 3f 5d 46 e1 3e
       0.38253304 -0.60245883 0.97327906 0.43998995
000180 4c 65 32 bf fb fe aa be 96 14 6b bf 49 68 a9 bf
       -0.69685817 -0.3339766 -0.91828287 -1.323495
000190 39 30 34 bd 56 81 ba 3f ba 71 df 3d 66 0c 29 bd
       -0.0439913 1.457072 0.109103635 -0.04127159
0001a0 77 1e 2f bf d0 34 aa 3e 0a 63 81 be 68 48 62 bf
       -0.6840586 0.33243418 -0.25270873 -0.88391733
0001b0 39 c1 07 be 2b 7b 02 c0 1d 18 1c bf 0b ef 90 be
       -0.13257302 -2.0387676 -0.60974294 -0.28307375
0001c0 52 33 a9 3d 40 6a 8f be 9b a4 43 3f 3d a4 ef 3e
       0.08261742 -0.2801075 0.76423043 0.4680499
0001d0 ab 52 b7 3e ef 85 18 be 41 31 1e bd a1 94 0e 3f
       0.35805258 -0.14894842 -0.03862119 0.5569554
0001e0 78 a6 5b 3f 4d 73 11 bf 2b 88 cc be 22 2d 96 be
       0.85800886 -0.5681656 -0.39947638 -0.2933131
0001f0 78 14 89 be 9e d4 24 bf 20 68 4a be 6c 94 ef be
       -0.2677343 -0.6438693 -0.19766283 -0.46792924
000200 a5 0b c7 be a7 f8 04 3f ce 29 c5 bf 39 ae 0b bf
       -0.38876072 0.51941913 -1.5403383 -0.5456272
000210 eb c1 0d 3b 21 bb 6b bf aa 56 b3 bf c5 29 8e bf
       0.0021630477 -0.9208241 -1.4010823 -1.1106497
000220 6c cc e0 bf 22 af c2 bd 9a b7 99 bf 66 7b cb 3e
       -1.7562385 -0.0950606 -1.2009156 0.39742583
000230 9a e5 fd bf 43 5e e4 3d d0 31 83 3e 4b 76 00 bf
       -1.9835694 0.111507915 0.2562394 -0.501805
000240 22 2c af 3e 79 7d 23 3f 74 49 63 3f 9b a2 01 3f
       0.34213358 0.6386333 0.88783956 0.5063874
000250 bc 42 a5 bf 7b ce 23 be c9 e5 e0 bf 4d 34 92 3f
       -1.2910991 -0.15996735 -1.7570125 1.1422211
000260 24 30 fc be 7e c6 50 3f 1a b5 dd be a0 4a 84 3e
       -0.49255478 0.81552875 -0.43302232 0.25838184
000270 d2 82 26 bf 79 b7 c0 bf 04 1d 73 bf e5 84 02 3e
       -0.65043366 -1.5055991 -0.9496615 0.12746008
000280 64 85 3d 3e 74 c7 fc 3d 1c 81 14 3f 31 e1 f9 3e
       0.18507916 0.1234273 0.58009505 0.4880462
000290 f7 06 28 bf 8f bb c6 bf cf f1 40 3f 69 9d 1d 3f
       -0.6563563 -1.5525988 0.7536897 0.61568314
0002a0 07 79 e7 be e0 40 ed 3e 92 a3 66 be b9 a7 02 c0
       -0.45209524 0.46338558 -0.22523335 -2.041487
0002b0 f5 bf a7 3e 3d cc 93 3f 01 25 19 bf be 1b 86 be
       0.3276364 1.1546704 -0.5982209 -0.2619304
0002c0 da e3 19 3e 87 d4 f5 3d 78 0b 2f be f2 8d 43 c0
       0.15028325 0.12003427 -0.17094219 -3.0555387
0002d0 39 25 95 be c9 c3 c3 3e ec 2d 19 3e 69 0e e3 bd
       -0.2912996 0.3823531 0.14958924 -0.11086733
0002e0 86 c6 8b bd a6 cc 01 3f 33 39 7c 3b d7 c0 fc bd
       -0.06824975 0.50702894 0.0038486242 -0.12341469
0002f0 7f 5b 14 3e 61 de eb be 1e 41 0d bf 81 42 a3 bd
       0.14488028 -0.460681 -0.55177486 -0.07971669

st_gcn_networks.1.gcn.conv.weight f4 [192, 64, 1, 1]
000000 d8 87 7b 3b 7e c3 51 be 77 5c 2f be 75 8e df bd
       0.003838053 -0.2048473 -0.17125116 -0.109158434
000010 7c 33 76 3e 6a 5f e2 bd fb d0 a7 3d 99 fc c5 bd
       0.24043077 -0.11053355 0.08194157 -0.0966732
000020 b6 2c e5 be 34 d7 90 bf 7a e4 89 bf f3 1c 93 bf
       -0.44760674 -1.1315675 -1.077285 -1.149321
000030 1c 19 b3 3e 22 5c 9f 3e 52 81 36 bb 83 3a 49 be
       0.34980094 0.3112498 -0.0027848077 -0.19651227
000040 98 09 29 3d 0b cd e8 bc 76 e1 8f bc b8 4c cb be
       0.041268915 -0.028418085 -0.017563563 -0.3970697
000050 f2 ab 27 3f 8f 1d 78 bf 52 ed 7a bd 53 d1 6c 3e
       0.6549674 -0.969201 -0.061261483 0.23126726
000060 23 d8 4f 3e e4 a7 3c be 12 de 06 be d4 30 36 be
       0.20297293 -0.1842342 -0.1317065 -0.17792064
000070 0c 23 df 3e 95 91 63 bf 34 1d 2a be 9e bb 18 bd
       0.43581426 -0.88894016 -0.16612703 -0.0372883
000080 b3 76 ed 3e 98 31 a6 3c ba 59 97 3e 23 7f 6c bf
       0.46379623 0.02028732 0.29560643 -0.92381495
000090 04 6a 49 be 94 86 f5 bd ef dc 61 be 52 4f 75 bd
       -0.19669348 -0.11988559 -0.22056936 -0.0598901
0000a0 d8 7e 1d bf b5 4c 0e bf 35 4f ca bd 20 f0 f6 be
       -0.61521673 -0.55585796 -0.09878389 -0.48230076
0000b0 30 b6 29 3f 4f b3 8a bf dd 31 6c 3e fa 1d 06 bf
       0.6629362 -1.0835971 0.23065896 -0.5238949
0000c0 0a e8 b7 be 3b 45 95 3e 01 fc 9e 3e 05 dd 98 3e
       -0.3591922 0.2915438 0.3105164 0.29856125
0000d0 eb e8 d0 bd 42 d8 0d 3f 23 9f 7e bd 8d c1 0c 3f
       -0.102006756 0.5540811 -0.062163483 0.54982835
0000e0 8d b0 ad 3d 59 dc a4 bc a3 9b 1b be 92 e8 41 bd
       0.0848094 -0.020124601 -0.1519609 -0.047340937
0000f0 06 19 52 b9 6a 7a b4 3c 98 bf e7 b9 33 ce 8f bd
       -0.00020036483 0.022031028 -0.00044202502 -0.07021751
000100 95 64 8f bd 6a bf 00 3e 39 2f ff be b7 66 0b bf
       -0.070016064 0.12573019 -0.49840716 -0.54453605
000110 a9 6a b2 3e 05 cb ae be 47 cc b2 be 87 a4 a0 3c
       0.34847 -0.34139267 -0.34921476 0.019609703
000120 1a d9 07 bf 13 1f 89 be cb 18 29 bf 75 76 c1 3e
       -0.53065646 -0.2678152 -0.66053456 0.37785688
000130 e1 40 9a be c7 d9 ea be ae f0 23 3e 19 4a 36 bf
       -0.30127624 -0.45869276 0.16009781 -0.71206814
000140 11 c6 c1 3e 44 7e 86 bf d7 43 90 be 52 b9 99 bf
       0.37846425 -1.0507283 -0.28176758 -1.200968
000150 85 fe b4 3e fe 00 98 bd 01 85 07 3f 3d 71 76 bd
       0.35350433 -0.07422064 0.5293732 -0.060166586
000160 35 14 f0 be c9 20 f8 be 9b cf d2 3e 79 6d cd bd
       -0.46890417 -0.48462513 0.41174015 -0.10030646
000170 85 49 03 3f 47 a1 5a bf 42 08 ab 3e 93 d4 4a 3e
       0.51284057 -0.8540234 0.33404738 0.19807653
000180 72 2e 21 3f cf 81 60 be df 49 fe be ec 5a ad 3d
       0.62961495 -0.21924518 -0.49665734 0.084646076
000190 c8 c6 e3 bf 32 09 ee 3e 49 4d 66 3d c9 e5 44 be
       -1.7795038 0.4649139 0.05622605 -0.19228281
0001a0 e0 69 f4 3d 71 ae 73 be 73 37 95 bc 87 88 6f bf
       0.119342566 -0.23797013 -0.018214917 -0.935677
0001b0 e2 62 4f 3e 52 a1 80 bf ed 04 81 3e 84 56 7a bf
       0.20252565 -1.0049231 0.2519907 -0.9778826
0001c0 14 8e 13 bf 51 d6 ce 3e cf 3f df 3e 09 68 24 3e
       -0.5763867 0.40397885 0.4360337 0.16055311
0001d0 73 0f c2 be bf f6 fc bd 9c 4c 9a bd c4 97 93 be
       -0.37902412 -0.123517506 -0.07534143 -0.28826725
0001e0 30 e6 97 be 32 00 a5 be 9f 1c 2f 3e dd 2b 71 3d
       -0.29667807 -0.32226712 0.17100762 0.058879722
0001f0 b5 3b 01 3d 9c c3 82 be 20 73 f3 bd 42 8e 44 3f
       0.03155108 -0.25539863 -0.11887193 0.7677957
000200 e1 33 8a 3e 8d da 55 3e 2e 71 3c bf 6d 23 b7 3e
       0.26992705 0.20884152 -0.736102 0.35769215
000210 59 c1 c6 be d4 99 69 3d fc 3e d1 3e c7 42 65 be
       -0.38819388 0.057031468 0.40868366 -0.22388755
000220 ae 1e d9 3d 7d d9 e5 bb 56 8f 7a 3d 1d 83 93 3c
       0.10601555 -0.007014452 0.061171852 0.018006856
000230 b7 ee 1c bf 64 0c 4a 3c 03 be 07 be 11 c3 11 bf
       -0.6130175 0.012332056 -0.13256077 -0.5693827
000240 11 dd b1 bd a6 fc cb 3e 75 8a 93 3d 18 da 16 be
       -0.08684743 0.39841193 0.07204143 -0.14731634
000250 88 c7 e2 be cb dd 0d 3f bd 7c 15 3f 5a 11 ab be
       -0.44292855 0.55416554 0.5839346 -0.33411676
000260 c3 20 bb be 8b bf f7 be 21 3b a0 3e b3 fa 49 bc
       -0.36548433 -0.48388323 0.31295112 -0.012327838
000270 1f 0c 91 3e 71 2c 93 3e 4c 0e f5 bd 53 4c b6 bd
       0.2832956 0.28744844 -0.119656175 -0.089012764
000280 8a 88 00 3f 83 6c 00 be ca d1 81 3e 14 f4 a0 3e
       0.5020834 -0.12541394 0.2535537 0.31436217
000290 8c 3a 1f bf 6b 93 9c bf 19 9c ed bd 64 01 c4 3e
       -0.6219871 -1.2232488 -0.11602039 0.3828231
0002a0 ae 9c f2 be 36 fd 97 be 0b bd 24 3f 8a e5 10 bd
       -0.47385162 -0.29685372 0.64350957 -0.035375156
0002b0 20 d5 b8 3d 37 5a 45 bf 01 44 6a 3e 1c 47 7e be
       0.09025025 -0.7709078 0.22877504 -0.24831814
0002c0 52 a3 31 bd 46 8d 50 3f 49 f7 99 be b5 7c 22 be
       -0.043368645 0.81465566 -0.30071476 -0.15867884
0002d0 da 5d ea 3e b2 ef 93 3e 86 f3 0b 3d 73 c7 f9 bc
       0.45774728 0.2889381 0.03416779 -0.030490613
0002e0 bf e3 1b 3e 54 27 d5 3e a8 79 59 be 0f 7b 3c bf
       0.15223597 0.41631567 -0.21237814 -0.7362527
0002f0 ee e3 9a 3d f3 3f c0 3e 1f 81 c6 be 4d e6 af bd
       0.075630054 0.3754879 -0.38770387 -0.08588848
000300 4f 6e e5 3e 6f 01 d1 bd 86 c1 c1 3d 9b ea 0c bf
       0.4481072 -0.102053516 0.0946074 -0.5504548
000310 91 4a 56 3e 66 28 f5 be 3d bd 4f bd ec 38 5e 3e
       0.20926882 -0.47882384 -0.05071758 0.21701401
000320 73 21 d2 3e d0 0c 01 3e e3 47 8a 3e ff 5b 68 be
       0.41041145 0.12602544 0.2700797 -0.22691344
000330 f7 1f 16 3f 10 f5 d5 3d 01 e5 fc 3d 14 6e 5b be
       0.58642524 0.104471326 0.123483665 -0.2142871
000340 2b 38 02 bf 4d 96 24 bf 95 e0 9f bf d1 04 0b bf
       -0.50866956 -0.6429184 -1.2490412 -0.54304224
000350 5e 29 29 bf 39 d5 cb be 23 27 be 3d f2 92 95 3f
       -0.66078746 -0.39811113 0.092848085 1.1685469
000360 b8 79 12 bf 62 46 3b bf 1d 64 c8 3d d6 4e 98 be
       -0.5721698 -0.7315427 0.0978472 -0.29747647
000370 f5 5a 98 3e a3 d1 c0 bc af 26 81 bf 04 ff 29 bf
       0.29756895 -0.023537463 -1.008993 -0.6640475
000380 ed 99 b4 bd f5 6e 91 be 05 68 69 bf dc fe 26 bd
       -0.088184215 -0.28404966 -0.91174346 -0.040770397
000390 f8 70 59 bf 19 f5 c0 be a8 56 aa bf 67 0d e7 3e
       -0.84938 -0.37686995 -1.3307695 0.45127413
0003a0 e3 3c a6 be c8 51 4e 3e 0b 38 21 3f d9 b0 35 bf
       -0.32468328 0.20148385 0.6297614 -0.70972973
0003b0 17 73 4a 3f 66 e3 b0 3e 7a ae 9b be b3 69 af 3e
       0.79081863 0.3454849 -0.30406553 0.3426033
0003c0 a5 35 e5 3c 04 b5 88 be b4 9d b0 3e 60 b6 26 3e
       0.027979681 -0.26700604 0.34495318 0.16280508
0003d0 50 53 32 3e 7f 6b d5 be 78 e3 b0 be 18 29 a0 be
       0.17414594 -0.41683576 -0.34548545 -0.31281352
0003e0 e2 a0 0e bf 16 fb 1a bf e7 c0 6b 3e 59 83 14 bf
       -0.5571424 -0.60539377 0.23022805 -0.5801292
0003f0 53 8c 25 bf f9 43 55 be 84 6f 28 3c 37 39 81 be
       -0.6466724 -0.20826711 0.010280494 -0.25238964

st_gcn_networks.1.gcn.conv.bias f4 [192]
000000 37 8e cb 3e 51 6c 16 bd c8 c6 90 3e e3 0a 56 be
       0.3975694 -0.036724392 0.28276658 -0.2090259
000010 fb 78 71 3e 55 b9 c3 3d 7b d1 63 3f e7 69 30 3f
       0.23581307 0.09556834 0.88991517 0.68911594
000020 de f2 52 bf 0c 72 c6 3e 05 32 e8 3c c0 0d 2f 3f
       -0.82401836 0.38758886 0.028344164 0.68380356
000030 21 ef 2b 3e 48 a1 4f 3f 5a 81 b5 3c 16 14 00 3f
       0.16790439 0.8110547 0.022156406 0.5003065
000040 f8 47 50 3d 06 6e 03 be 9a d5 a8 3e 89 44 20 3e
       0.050849885 -0.1283494 0.32975465 0.15651144
000050 79 14 d6 3d 8f ca b9 be 50 7d 1f bf 01 0a 47 3e
       0.104531236 -0.36287352 -0.62300587 0.1943741
000060 ae ed 85 3e a9 49 ac be 87 dc 05 3f e0 82 2f bf
       0.26157898 -0.33649948 0.52289623 -0.68559074
000070 19 82 de 3e e7 af f9 bd 06 5c 92 bd 8c 90 02 3e
       0.43458632 -0.12191754 -0.07146458 0.12750453
000080 99 96 74 bd fc 8c c0 3e c8 67 94 be 1c 1f 06 3e
       -0.059713934 0.37607563 -0.2898543 0.13097805
000090 bd 13 7a bf a6 d7 fb be 4f c9 db be 75 61 d5 3d
       -0.9768637 -0.49187964 -0.42927024 0.10418979
0000a0 6b ab 75 bf b5 25 79 be 89 fb e0 bd a7 3a f3 3e
       -0.9596469 -0.2433079 -0.109854765 0.47505686
0000b0 b1 56 93 3e a7 93 31 bf 79 24 74 3d a6 89 01 3f
       0.28777078 -0.69365925 0.059605096 0.5060066
0000c0 a1 fc 48 bc 06 27 2b 3f 51 c1 e7 3e 5d f7 d5 3e
       -0.012267263 0.6685642 0.45264676 0.41790286
0000d0 2b 85 b1 bd 2c ff 6c be 8f 81 c3 3e 2c 5e 90 bc
       -0.08667978 -0.23144215 0.38184783 -0.01762303
0000e0 f3 86 25 3f 58 a7 c4 3e b1 db 24 3e 7f 2f da 3e
       0.6465904 0.38408923 0.1609943 0.42614362
0000f0 0b ad 52 3f f0 fb 0d 3f 2b 95 9c 3e 06 fc 1d bf
       0.8229529 0.5546255 0.30582556 -0.6171268
000100 15 f0 81 3e e7 2e 12 3e 31 8d 0d 3f a4 47 96 3e
       0.2537848 0.14275704 0.55293566 0.29351532
000110 59 db 36 3f dd d4 56 bf da f1 c6 3d 7d 3b 55 bf
       0.7142845 -0.83918554 0.09714098 -0.83293897
000120 e5 db e3 be 5d 89 95 3e 61 26 ae 3e d9 b7 9b 3e
       -0.44503704 0.29206362 0.34013656 0.30413702
000130 bd 29 a9 3e 55 db 57 3e b2 3b 8b 3d dd 7d 88 3e
       0.33039656 0.21079762 0.06798495 0.26658526
000140 49 ff 8b 3e 5f 0d 87 be 9c fd 3b 3e 70 b4 6c 3d
       0.27343205 -0.2637739 0.18358463 0.057789266
000150 47 38 53 bf 1d 6a 2b be 5e 59 ae 3d 6b 0e 6f 3e
       -0.8250775 -0.16739698 0.08513139 0.23345344
000160 71 5b 47 3e 3c 09 12 3e 12 04 dd 3d d4 35 01 be
       0.19468476 0.14261335 0.10791792 -0.1261819
000170 46 1f 4a be a9 7b 1c 3f e3 a6 c8 3e 62 91 95 3e
       -0.19738492 0.6112619 0.39189824 0.2921248
000180 c2 36 fa 3d ca e2 25 bf 5c 91 22 be 3e 96 5f 3e
       0.122174755 -0.6479918 -0.15875763 0.21834657
000190 ad be 7d 3e 82 7b 15 3f cd a9 27 3f d1 47 00 3f
       0.24779768 0.5839158 0.6549347 0.50109583
0001a0 87 37 fe 3e 9d dc 80 bc 63 87 a8 bc 52 d3 f7 3d
       0.4965174 -0.015730197 -0.02057237 0.12100853
0001b0 f7 e7 9b bd f7 51 3a bd 51 fb 58 3e be 6d f8 3e
       -0.07612603 -0.045488324 0.2118962 0.48521227
0001c0 e9 ba 3e 3f c1 48 f3 3e 60 35 00 bd 79 c4 95 3e
       0.7450395 0.47516444 -0.031300902 0.2925146
0001d0 b6 23 fb 3d 00 28 14 bf 2c aa d8 be b7 42 69 bf
       0.12262671 -0.57873535 -0.4231733 -0.91117424
0001e0 2a 97 4a be 75 6a 91 be 59 a8 45 3f e0 a1 5e be
       -0.19784227 -0.28401533 0.77210003 -0.21741438
0001f0 f5 35 99 be cb b5 77 be 04 a3 9c 3d 60 a5 07 bf
       -0.29923978 -0.24190442 0.0764828 -0.5298672
000200 19 82 65 3e e8 6c f0 3e 67 56 ad 3c f3 db 93 bd
       0.2241291 0.4695809 0.021159364 -0.07219686
000210 4f 65 85 be b8 ba 66 3e 22 a0 ea 3f df df d3 be
       -0.26053855 0.22532165 1.8330119 -0.41381738
000220 e2 8d ae 3f 00 ce 06 bc fd c9 1a 3f e6 53 84 be
       1.3637049 -0.008227825 0.6046446 -0.2584526
000230 91 02 2c 3f 54 c1 12 be 4a dd 2d bf fd 93 4a be
       0.67191416 -0.14331561 -0.67915785 -0.19783016
000240 e1 d4 be 3e ba 2a ee bf 3d 32 32 3f a2 75 81 3e
       0.3727179 -1.8606789 0.6960791 0.2528506
000250 c4 b8 87 3f 9a 33 0e 3f ad 8a cd 3e d8 2a e7 3b
       1.0603261 0.5554749 0.40144864 0.007054668
000260 fc 5d 13 3f af 6f 12 3f d9 7a 1e 3f 83 d8 43 3f
       0.57565284 0.57201666 0.619062 0.76502246
000270 bf 21 0f bf 3d df b9 be bb 91 46 bf 8a 97 64 be
       -0.5591087 -0.3630313 -0.7756612 -0.22323433
000280 a8 25 7b 3e ec 6d 1c bf 2b e0 03 3f 13 5f 17 be
       0.24526083 -0.6110523 0.5151393 -0.14782362
000290 10 bd e7 3e cf 1c d1 3e df 65 00 3f 08 1a 4d bf
       0.4526143 0.40842292 0.5015544 -0.80117846
0002a0 a0 87 66 3f 70 99 95 bd 74 ee 25 be 84 99 1e 3f
       0.900507 -0.073046565 -0.16204244 0.61952996
0002b0 36 10 01 3e cf 73 ae 3e ae 2f ce bd 6a d2 70 be
       0.1260384 0.3407273 -0.10067688 -0.23517767
0002c0 d3 fb 45 bf ee f3 36 bf 19 4e 78 bd 72 5f 6d 3c
       -0.7733738 -0.7146596 -0.060621355 0.014488088
0002d0 3c e9 c5 3e 25 62 97 3f 73 8e 3f 3f 92 f7 c6 3f
       0.38654506 1.1826826 0.74826735 1.5544302
0002e0 5f f2 19 bf 39 77 56 3f 45 e8 04 bf 7e 93 80 3d
       -0.60135454 0.8377567 -0.51916915 0.06278132
0002f0 ee 83 68 be ae bd 8d bf f9 21 9b 3e b0 ca 92 3f
       -0.22706577 -1.1073511 0.30299357 1.1468105

edge_importance.0 f4 [3, 15, 15]
000000 5f 1d 93 3f 9b 7c 0a 80 9b 7c 0a 80 9b 7c 0a 80
       1.1493338 -9.63055e-40 -9.63055e-40 -9.63055e-40
000010 9b 7c 0a 80 9b 7c 0a 80 9b 7c 0a 80 9b 7c 0a 80
       -9.63055e-40 -9.63055e-40 -9.63055e-40 -9.63055e-40
000020 9b 7c 0a 80 9b 7c 0a 80 9b 7c 0a 80 9b 7c 0a 80
       -9.63055e-40 -9.63055e-40 -9.63055e-40 -9.63055e-40
000030 9b 7c 0a 80 9b 7c 0a 80 9b 7c 0a 80 9b 7c 0a 80
       -9.63055e-40 -9.63055e-40 -9.63055e-40 -9.63055e-40
000040 fd a5 85 3f 9b 7c 0a 80 9b 7c 0a 80 9b 7c 0a 80
       1.0441281 -9.63055e-40 -9.63055e-40 -9.63055e-40
000050 9b 7c 0a 80 9b 7c 0a 80 9b 7c 0a 80 9b 7c 0a 80
       -9.63055e-40 -9.63055e-40 -9.63055e-40 -9.63055e-40
000060 9b 7c 0a 80 9b 7c 0a 80 9b 7c 0a 80 9b 7c 0a 80
       -9.63055e-40 -9.63055e-40 -9.63055e-40 -9.63055e-40
000070 9b 7c 0a 80 9b 7c 0a 80 9b 7c 0a 80 9b 7c 0a 80
       -9.63055e-40 -9.63055e-40 -9.63055e-40 -9.63055e-40
000080 29 c9 1f 3f 9b 7c 0a 80 9b 7c 0a 80 9b 7c 0a 80
       0.6241632 -9.63055e-40 -9.63055e-40 -9.63055e-40
000090 9b 7c 0a 80 9b 7c 0a 80 9b 7c 0a 80 9b 7c 0a 80
       -9.63055e-40 -9.63055e-40 -9.63055e-40 -9.63055e-40
0000a0 9b 7c 0a 80 9b 7c 0a 80 9b 7c 0a 80 9b 7c 0a 80
       -9.63055e-40 -9.63055e-40 -9.63055e-40 -9.63055e-40
0000b0 9b 7c 0a 80 9b 7c 0a 80 9b 7c 0a 80 9b 7c 0a 80
       -9.63055e-40 -9.63055e-40 -9.63055e-40 -9.63055e-40
0000c0 a7 af a1 3f 9b 7c 0a 80 9b 7c 0a 80 9b 7c 0a 80
       1.263173 -9.63055e-40 -9.63055e-40 -9.63055e-40
0000d0 9b 7c 0a 80 9b 7c 0a 80 9b 7c 0a 80 9b 7c 0a 80
       -9.63055e-40 -9.63055e-40 -9.63055e-40 -9.63055e-40
0000e0 9b 7c 0a 80 9b 7c 0a 80 9b 7c 0a 80 9b 7c 0a 80
       -9.63055e-40 -9.63055e-40 -9.63055e-40 -9.63055e-40
0000f0 9b 7c 0a 80 9b 7c 0a 80 9b 7c 0a 80 9b 7c 0a 80
       -9.63055e-40 -9.63055e-40 -9.63055e-40 -9.63055e-40
000100 c9 f7 fa 3e 9b 7c 0a 80 9b 7c 0a 80 9b 7c 0a 80
       0.4901717 -9.63055e-40 -9.63055e-40 -9.63055e-40
000110 9b 7c 0a 80 9b 7c 0a 80 9b 7c 0a 80 9b 7c 0a 80
       -9.63055e-40 -9.63055e-40 -9.63055e-40 -9.63055e-40
000120 9b 7c 0a 80 9b 7c 0a 80 9b 7c 0a 80 9b 7c 0a 80
       -9.63055e-40 -9.63055e-40 -9.63055e-40 -9.63055e-40
000130 9b 7c 0a 80 9b 7c 0a 80 9b 7c 0a 80 9b 7c 0a 80
       -9.63055e-40 -9.63055e-40 -9.63055e-40 -9.63055e-40
000140 af 8f 2c 3f 9b 7c 0a 80 9b 7c 0a 80 9b 7c 0a 80
       0.67406744 -9.63055e-40 -9.63055e-40 -9.63055e-40
000150 9b 7c 0a 80 9b 7c 0a 80 9b 7c 0a 80 9b 7c 0a 80
       -9.63055e-40 -9.63055e-40 -9.63055e-40 -9.63055e-40
000160 9b 7c 0a 80 9b 7c 0a 80 9b 7c 0a 80 9b 7c 0a 80
       -9.63055e-40 -9.63055e-40 -9.63055e-40 -9.63055e-40
000170 9b 7c 0a 80 9b 7c 0a 80 9b 7c 0a 80 9b 7c 0a 80
       -9.63055e-40 -9.63055e-40 -9.63055e-40 -9.63055e-40
000180 1c 49 86 3f 9b 7c 0a 80 9b 7c 0a 80 9b 7c 0a 80
       1.0491061 -9.63055e-40 -9.63055e-40 -9.63055e-40
000190 9b 7c 0a 80 9b 7c 0a 80 9b 7c 0a 80 9b 7c 0a 80
       -9.63055e-40 -9.63055e-40 -9.63055e-40 -9.63055e-40
0001a0 9b 7c 0a 80 9b 7c 0a 80 9b 7c 0a 80 9b 7c 0a 80
       -9.63055e-40 -9.63055e-40 -9.63055e-40 -9.63055e-40
0001b0 9b 7c 0a 80 9b 7c 0a 80 9b 7c 0a 80 9b 7c 0a 80
       -9.63055e-40 -9.63055e-40 -9.63055e-40 -9.63055e-40
0001c0 5d 5d 8f 3f 9b 7c 0a 80 9b 7c 0a 80 9b 7c 0a 80
       1.1200367 -9.63055e-40 -9.63055e-40 -9.63055e-40
0001d0 9b 7c 0a 80 9b 7c 0a 80 9b 7c 0a 80 9b 7c 0a 80
       -9.63055e-40 -9.63055e-40 -9.63055e-40 -9.63055e-40
0001e0 9b 7c 0a 80 9b 7c 0a 80 9b 7c 0a 80 9b 7c 0a 80
       -9.63055e-40 -9.63055e-40 -9.63055e-40 -9.63055e-40
0001f0 9b 7c 0a 80 9b 7c 0a 80 9b 7c 0a 80 9b 7c 0a 80
       -9.63055e-40 -9.63055e-40 -9.63055e-40 -9.63055e-40
000200 26 05 e6 3f 9b 7c 0a 80 9b 7c 0a 80 9b 7c 0a 80
       1.7970321 -9.63055e-40 -9.63055e-40 -9.63055e-40
000210 9b 7c 0a 80 9b 7c 0a 80 9b 7c 0a 80 9b 7c 0a 80
       -9.63055e-40 -9.63055e-40 -9.63055e-40 -9.63055e-40
000220 9b 7c 0a 80 9b 7c 0a 80 9b 7c 0a 80 9b 7c 0a 80
       -9.63055e-40 -9.63055e-40 -9.63055e-40 -9.63055e-40
000230 9b 7c 0a 80 9b 7c 0a 80 9b 7c 0a 80 9b 7c 0a 80
       -9.63055e-40 -9.63055e-40 -9.63055e-40 -9.63055e-40
000240 71 c7 7a 3f 9b 7c 0a 80 9b 7c 0a 80 9b 7c 0a 80
       0.97960573 -9.63055e-40 -9.63055e-40 -9.63055e-40
000250 9b 7c 0a 80 9b 7c 0a 80 9b 7c 0a 80 9b 7c 0a 80
       -9.63055e-40 -9.63055e-40 -9.63055e-40 -9.63055e-40
000260 9b 7c 0a 80 9b 7c 0a 80 9b 7c 0a 80 9b 7c 0a 80
       -9.63055e-40 -9.63055e-40 -9.63055e-40 -9.63055e-40
000270 9b 7c 0a 80 9b 7c 0a 80 9b 7c 0a 80 9b 7c 0a 80
       -9.63055e-40 -9.63055e-40 -9.63055e-40 -9.63055e-40
000280 20 9b e0 3f 9b 7c 0a 80 9b 7c 0a 80 9b 7c 0a 80
       1.754734 -9.63055e-40 -9.63055e-40 -9.63055e-40
000290 9b 7c 0a 80 9b 7c 0a 80 9b 7c 0a 80 9b 7c 0a 80
       -9.63055e-40 -9.63055e-40 -9.63055e-40 -9.63055e-40
0002a0 9b 7c 0a 80 9b 7c 0a 80 9b 7c 0a 80 9b 7c 0a 80
       -9.63055e-40 -9.63055e-40 -9.63055e-40 -9.63055e-40
0002b0 9b 7c 0a 80 9b 7c 0a 80 9b 7c 0a 80 9b 7c 0a 80
       -9.63055e-40 -9.63055e-40 -9.63055e-40 -9.63055e-40
0002c0 68 28 d5 3f 9b 7c 0a 80 9b 7c 0a 80 9b 7c 0a 80
       1.6652956 -9.63055e-40 -9.63055e-40 -9.63055e-40
0002d0 9b 7c 0a 80 9b 7c 0a 80 9b 7c 0a 80 9b 7c 0a 80
       -9.63055e-40 -9.63055e-40 -9.63055e-40 -9.63055e-40
0002e0 9b 7c 0a 80 9b 7c 0a 80 9b 7c 0a 80 9b 7c 0a 80
       -9.63055e-40 -9.63055e-40 -9.63055e-40 -9.63055e-40
0002f0 9b 7c 0a 80 9b 7c 0a 80 9b 7c 0a 80 9b 7c 0a 80
       -9.63055e-40 -9.63055e-40 -9.63055e-40 -9.63055e-40
000300 f6 f4 61 3f 9b 7c 0a 80 9b 7c 0a 80 9b 7c 0a 80
       0.88264406 -9.63055e-40 -9.63055e-40 -9.63055e-40
000310 9b 7c 0a 80 9b 7c 0a 80 9b 7c 0a 80 9b 7c 0a 80
       -9.63055e-40 -9.63055e-40 -9.63055e-40 -9.63055e-40
000320 9b 7c 0a 80 9b 7c 0a 80 9b 7c 0a 80 9b 7c 0a 80
       -9.63055e-40 -9.63055e-40 -9.63055e-40 -9.63055e-40
000330 9b 7c 0a 80 9b 7c 0a 80 9b 7c 0a 80 9b 7c 0a 80
       -9.63055e-40 -9.63055e-40 -9.63055e-40 -9.63055e-40
000340 a1 cf 34 3f 9b 7c 0a 80 9b 7c 0a 80 9b 7c 0a 80
       0.70629317 -9.63055e-40 -9.63055e-40 -9.63055e-40
000350 9b 7c 0a 80 9b 7c 0a 80 9b 7c 0a 80 9b 7c 0a 80
       -9.63055e-40 -9.63055e-40 -9.63055e-40 -9.63055e-40
000360 9b 7c 0a 80 9b 7c 0a 80 9b 7c 0a 80 9b 7c 0a 80
       -9.63055e-40 -9.63055e-40 -9.63055e-40 -9.63055e-40
000370 9b 7c 0a 80 9b 7c 0a 80 9b 7c 0a 80 9b 7c 0a 80
       -9.63055e-40 -9.63055e-40 -9.63055e-40 -9.63055e-40
000380 46 bc 01 3f 9b 7c 0a 80 78 cb da 3f 9b 7c 0a 80
       0.5067791 -9.63055e-40 1.7093344 -9.63055e-40
000390 9b 7c 0a 80 9b 7c 0a 80 9b 7c 0a 80 9b 7c 0a 80
       -9.63055e-40 -9.63055e-40 -9.63055e-40 -9.63055e-40
0003a0 9b 7c 0a 80 9b 7c 0a 80 9b 7c 0a 80 9b 7c 0a 80
       -9.63055e-40 -9.63055e-40 -9.63055e-40 -9.63055e-40
0003b0 9b 7c 0a 80 9b 7c 0a 80 9b 7c 0a 80 9b 7c 0a 80
       -9.63055e-40 -9.63055e-40 -9.63055e-40 -9.63055e-40
0003c0 3b 46 58 3f 9b 7c 0a 80 8a 29 a1 3f 9b 7c 0a 80
       0.84482163 -9.63055e-40 1.2590802 -9.63055e-40
0003d0 9b 7c 0a 80 9b 7c 0a 80 9b 7c 0a 80 9b 7c 0a 80
       -9.63055e-40 -9.63055e-40 -9.63055e-40 -9.63055e-40
0003e0 9b 7c 0a 80 9b 7c 0a 80 9b 7c 0a 80 9b 7c 0a 80
       -9.63055e-40 -9.63055e-40 -9.63055e-40 -9.63055e-40
0003f0 9b 7c 0a 80 9b 7c 0a 80 9b 7c 0a 80 9b 7c 0a 80
       -9.63055e-40 -9.63055e-40 -9.63055e-40 -9.63055e-40

edge_importance.1 f4 [3, 15, 15]
000000 d0 8e 6d 3e 9b 7c 0a 80 9b 7c 0a 80 9b 7c 0a 80
       0.2319901 -9.63055e-40 -9.63055e-40 -9.63055e-40
000010 9b 7c 0a 80 9b 7c 0a 80 9b 7c 0a 80 9b 7c 0a 80
       -9.63055e-40 -9.63055e-40 -9.63055e-40 -9.63055e-40
000020 9b 7c 0a 80 9b 7c 0a 80 9b 7c 0a 80 9b 7c 0a 80
       -9.63055e-40 -9.63055e-40 -9.63055e-40 -9.63055e-40
000030 9b 7c 0a 80 9b 7c 0a 80 9b 7c 0a 80 9b 7c 0a 80
       -9.63055e-40 -9.63055e-40 -9.63055e-40 -9.63055e-40
000040 33 54 5a bd 9b 7c 0a 80 9b 7c 0a 80 9b 7c 0a 80
       -0.053302955 -9.63055e-40 -9.63055e-40 -9.63055e-40
000050 9b 7c 0a 80 9b 7c 0a 80 9b 7c 0a 80 9b 7c 0a 80
       -9.63055e-40 -9.63055e-40 -9.63055e-40 -9.63055e-40
000060 9b 7c 0a 80 9b 7c 0a 80 9b 7c 0a 80 9b 7c 0a 80
       -9.63055e-40 -9.63055e-40 -9.63055e-40 -9.63055e-40
000070 9b 7c 0a 80 9b 7c 0a 80 9b 7c 0a 80 9b 7c 0a 80
       -9.63055e-40 -9.63055e-40 -9.63055e-40 -9.63055e-40
000080 4e 4c 97 3f 9b 7c 0a 80 9b 7c 0a 80 9b 7c 0a 80
       1.1820161 -9.63055e-40 -9.63055e-40 -9.63055e-40
000090 9b 7c 0a 80 9b 7c 0a 80 9b 7c 0a 80 9b 7c 0a 80
       -9.63055e-40 -9.63055e-40 -9.63055e-40 -9.63055e-40
0000a0 9b 7c 0a 80 9b 7c 0a 80 9b 7c 0a 80 9b 7c 0a 80
       -9.63055e-40 -9.63055e-40 -9.63055e-40 -9.63055e-40
0000b0 9b 7c 0a 80 9b 7c 0a 80 9b 7c 0a 80 9b 7c 0a 80
       -9.63055e-40 -9.63055e-40 -9.63055e-40 -9.63055e-40
0000c0 54 c9 1f 3f 9b 7c 0a 80 9b 7c 0a 80 9b 7c 0a 80
       0.6241658 -9.63055e-40 -9.63055e-40 -9.63055e-40
0000d0 9b 7c 0a 80 9b 7c 0a 80 9b 7c 0a 80 9b 7c 0a 80
       -9.63055e-40 -9.63055e-40 -9.63055e-40 -9.63055e-40
0000e0 9b 7c 0a 80 9b 7c 0a 80 9b 7c 0a 80 9b 7c 0a 80
       -9.63055e-40 -9.63055e-40 -9.63055e-40 -9.63055e-40
0000f0 9b 7c 0a 80 9b 7c 0a 80 9b 7c 0a 80 9b 7c 0a 80
       -9.63055e-40 -9.63055e-40 -9.63055e-40 -9.63055e-40
000100 4e 58 30 3f 9b 7c 0a 80 9b 7c 0a 80 9b 7c 0a 80
       0.6888474 -9.63055e-40 -9.63055e-40 -9.63055e-40
000110 9b 7c 0a 80 9b 7c 0a 80 9b 7c 0a 80 9b 7c 0a 80
       -9.63055e-40 -9.63055e-40 -9.63055e-40 -9.63055e-40
000120 9b 7c 0a 80 9b 7c 0a 80 9b 7c 0a 80 9b 7c 0a 80
       -9.63055e-40 -9.63055e-40 -9.63055e-40 -9.63055e-40
000130 9b 7c 0a 80 9b 7c 0a 80 9b 7c 0a 80 9b 7c 0a 80
       -9.63055e-40 -9.63055e-40 -9.63055e-40 -9.63055e-40
000140 7b 27 f1 3e 9b 7c 0a 80 9b 7c 0a 80 9b 7c 0a 80
       0.47100434 -9.63055e-40 -9.63055e-40 -9.63055e-40
000150 9b 7c 0a 80 9b 7c 0a 80 9b 7c 0a 80 9b 7c 0a 80
       -9.63055e-40 -9.63055e-40 -9.63055e-40 -9.63055e-40
000160 9b 7c 0a 80 9b 7c 0a 80 9b 7c 0a 80 9b 7c 0a 80
       -9.63055e-40 -9.63055e-40 -9.63055e-40 -9.63055e-40
000170 9b 7c 0a 80 9b 7c 0a 80 9b 7c 0a 80 9b 7c 0a 80
       -9.63055e-40 -9.63055e-40 -9.63055e-40 -9.63055e-40
000180 48 19 0e 3f 9b 7c 0a 80 9b 7c 0a 80 9b 7c 0a 80
       0.55507326 -9.63055e-40 -9.63055e-40 -9.63055e-40
000190 9b 7c 0a 80 9b 7c 0a 80 9b 7c 0a 80 9b 7c 0a 80
       -9.63055e-40 -9.63055e-40 -9.63055e-40 -9.63055e-40
0001a0 9b 7c 0a 80 9b 7c 0a 80 9b 7c 0a 80 9b 7c 0a 80
       -9.63055e-40 -9.63055e-40 -9.63055e-40 -9.63055e-40
0001b0 9b 7c 0a 80 9b 7c 0a 80 9b 7c 0a 80 9b 7c 0a 80
       -9.63055e-40 -9.63055e-40 -9.63055e-40 -9.63055e-40
0001c0 b2 be 93 3f 9b 7c 0a 80 9b 7c 0a 80 9b 7c 0a 80
       1.154257 -9.63055e-40 -9.63055e-40 -9.63055e-40
0001d0 9b 7c 0a 80 9b 7c 0a 80 9b 7c 0a 80 9b 7c 0a 80
       -9.63055e-40 -9.63055e-40 -9.63055e-40 -9.63055e-40
0001e0 9b 7c 0a 80 9b 7c 0a 80 9b 7c 0a 80 9b 7c 0a 80
       -9.63055e-40 -9.63055e-40 -9.63055e-40 -9.63055e-40
0001f0 9b 7c 0a 80 9b 7c 0a 80 9b 7c 0a 80 9b 7c 0a 80
       -9.63055e-40 -9.63055e-40 -9.63055e-40 -9.63055e-40
000200 48 13 8e 3f 9b 7c 0a 80 9b 7c 0a 80 9b 7c 0a 80
       1.1099634 -9.63055e-40 -9.63055e-40 -9.63055e-40
000210 9b 7c 0a 80 9b 7c 0a 80 9b 7c 0a 80 9b 7c 0a 80
       -9.63055e-40 -9.63055e-40 -9.63055e-40 -9.63055e-40
000220 9b 7c 0a 80 9b 7c 0a 80 9b 7c 0a 80 9b 7c 0a 80
       -9.63055e-40 -9.63055e-40 -9.63055e-40 -9.63055e-40
000230 9b 7c 0a 80 9b 7c 0a 80 9b 7c 0a 80 9b 7c 0a 80
       -9.63055e-40 -9.63055e-40 -9.63055e-40 -9.63055e-40
000240 90 92 81 3e 9b 7c 0a 80 9b 7c 0a 80 9b 7c 0a 80
       0.2530713 -9.63055e-40 -9.63055e-40 -9.63055e-40
000250 9b 7c 0a 80 9b 7c 0a 80 9b 7c 0a 80 9b 7c 0a 80
       -9.63055e-40 -9.63055e-40 -9.63055e-40 -9.63055e-40
000260 9b 7c 0a 80 9b 7c 0a 80 9b 7c 0a 80 9b 7c 0a 80
       -9.63055e-40 -9.63055e-40 -9.63055e-40 -9.63055e-40
000270 9b 7c 0a 80 9b 7c 0a 80 9b 7c 0a 80 9b 7c 0a 80
       -9.63055e-40 -9.63055e-40 -9.63055e-40 -9.63055e-40
000280 b4 34 32 3e 9b 7c 0a 80 9b 7c 0a 80 9b 7c 0a 80
       0.17402917 -9.63055e-40 -9.63055e-40 -9.63055e-40
000290 9b 7c 0a 80 9b 7c 0a 80 9b 7c 0a 80 9b 7c 0a 80
       -9.63055e-40 -9.63055e-40 -9.63055e-40 -9.63055e-40
0002a0 9b 7c 0a 80 9b 7c 0a 80 9b 7c 0a 80 9b 7c 0a 80
       -9.63055e-40 -9.63055e-40 -9.63055e-40 -9.63055e-40
0002b0 9b 7c 0a 80 9b 7c 0a 80 9b 7c 0a 80 9b 7c 0a 80
       -9.63055e-40 -9.63055e-40 -9.63055e-40 -9.63055e-40
0002c0 0d a4 44 3d 9b 7c 0a 80 9b 7c 0a 80 9b 7c 0a 80
       0.048008014 -9.63055e-40 -9.63055e-40 -9.63055e-40
0002d0 9b 7c 0a 80 9b 7c 0a 80 9b 7c 0a 80 9b 7c 0a 80
       -9.63055e-40 -9.63055e-40 -9.63055e-40 -9.63055e-40
0002e0 9b 7c 0a 80 9b 7c 0a 80 9b 7c 0a 80 9b 7c 0a 80
       -9.63055e-40 -9.63055e-40 -9.63055e-40 -9.63055e-40
0002f0 9b 7c 0a 80 9b 7c 0a 80 9b 7c 0a 80 9b 7c 0a 80
       -9.63055e-40 -9.63055e-40 -9.63055e-40 -9.63055e-40
000300 da 89 35 be 9b 7c 0a 80 9b 7c 0a 80 9b 7c 0a 80
       -0.17728367 -9.63055e-40 -9.63055e-40 -9.63055e-40
000310 9b 7c 0a 80 9b 7c 0a 80 9b 7c 0a 80 9b 7c 0a 80
       -9.63055e-40 -9.63055e-40 -9.63055e-40 -9.63055e-40
000320 9b 7c 0a 80 9b 7c 0a 80 9b 7c 0a 80 9b 7c 0a 80
       -9.63055e-40 -9.63055e-40 -9.63055e-40 -9.63055e-40
000330 9b 7c 0a 80 9b 7c 0a 80 9b 7c 0a 80 9b 7c 0a 80
       -9.63055e-40 -9.63055e-40 -9.63055e-40 -9.63055e-40
000340 db 00 87 3d 9b 7c 0a 80 9b 7c 0a 80 9b 7c 0a 80
       0.0659196 -9.63055e-40 -9.63055e-40 -9.63055e-40
000350 9b 7c 0a 80 9b 7c 0a 80 9b 7c 0a 80 9b 7c 0a 80
       -9.63055e-40 -9.63055e-40 -9.63055e-40 -9.63055e-40
000360 9b 7c 0a 80 9b 7c 0a 80 9b 7c 0a 80 9b 7c 0a 80
       -9.63055e-40 -9.63055e-40 -9.63055e-40 -9.63055e-40
000370 9b 7c 0a 80 9b 7c 0a 80 9b 7c 0a 80 9b 7c 0a 80
       -9.63055e-40 -9.63055e-40 -9.63055e-40 -9.63055e-40
000380 f2 b5 ed 3e 9b 7c 0a 80 2b 0d b1 3e 9b 7c 0a 80
       0.46427876 -9.63055e-40 0.3458036 -9.63055e-40
000390 9b 7c 0a 80 9b 7c 0a 80 9b 7c 0a 80 9b 7c 0a 80
       -9.63055e-40 -9.63055e-40 -9.63055e-40 -9.63055e-40
0003a0 9b 7c 0a 80 9b 7c 0a 80 9b 7c 0a 80 9b 7c 0a 80
       -9.63055e-40 -9.63055e-40 -9.63055e-40 -9.63055e-40
0003b0 9b 7c 0a 80 9b 7c 0a 80 9b 7c 0a 80 9b 7c 0a 80
       -9.63055e-40 -9.63055e-40 -9.63055e-40 -9.63055e-40
0003c0 30 f7 de 3e 9b 7c 0a 80 2d 4e 3a 3f 9b 7c 0a 80
       0.43547964 -9.63055e-40 0.72775537 -9.63055e-40
0003d0 9b 7c 0a 80 9b 7c 0a 80 9b 7c 0a 80 9b 7c 0a 80
       -9.63055e-40 -9.63055e-40 -9.63055e-40 -9.63055e-40
0003e0 9b 7c 0a 80 9b 7c 0a 80 9b 7c 0a 80 9b 7c 0a 80
       -9.63055e-40 -9.63055e-40 -9.63055e-40 -9.63055e-40
0003f0 9b 7c 0a 80 9b 7c 0a 80 9b 7c 0a 80 9b 7c 0a 80
       -9.63055e-40 -9.63055e-40 -9.63055e-40 -9.63055e-40
